…
:"https://localhost:8080/"},"id":"UkbbrK5gQQYi","executionInfo":{"status":"ok","timestamp":1680266034108,"user_tz":-540,"elapsed":327019,"user":{"displayName":"최원준","userId":"01892957415387911878"}},"outputId":"3dc188fb-98a3-4455-8839-45e19aec5773"},"execution_count":null,"outputs":[{"output_type":"stream","name":"stdout","text":["Model: \"sequential_3\"\n","_________________________________________________________________\n"," Layer (type)                Output Shape              Param #   \n","=================================================================\n"," conv2d_14 (Conv2D)          (None, 32, 32, 32)        896       \n","                                                                 \n"," batch_normalization_14 (Bat  (None, 32, 32, 32)       128       \n"," chNormalization)                                                \n","                                                                 \n"," conv2d_15 (Conv2D)          (None, 32, 32, 32)        9248      \n","                                                                 \n"," batch_normalization_15 (Bat  (None, 32, 32, 32)       128       \n"," chNormalization)                                                \n","                                                                 \n"," max_pooling2d_7 (MaxPooling  (None, 16, 16, 32)       0         \n"," 2D)                                                             \n","                                                                 \n"," dropout_11 (Dropout)        (None, 16, 16, 32)        0         \n","                                                                 \n"," conv2d_16 (Conv2D)          (None, 16, 16, 64)        18496     \n","                                                                 \n"," batch_normalization_16 (Bat  (None, 16, 16, 64)       256       \n"," chNormalization)                                                \n","                                                                 \n"," conv2d_17 (Conv2D)          (None, 16, 16, 64)        36928     \n","                                                                 \n"," batch_normalization_17 (Bat  (None, 16, 16, 64)       256       \n"," chNormalization)                                                \n","                                                                 \n"," max_pooling2d_8 (MaxPooling  (None, 8, 8, 64)         0         \n"," 2D)                                                             \n","                                                                 \n"," dropout_12 (Dropout)        (None, 8, 8, 64)          0         \n","                                                                 \n"," conv2d_18 (Conv2D)          (None, 8, 8, 128)         73856     \n","                                                                 \n"," batch_normalization_18 (Bat  (None, 8, 8, 128)        512       \n"," chNormalization)                                                \n","                                                                 \n"," conv2d_19 (Conv2D)          (None, 8, 8, 128)         147584    \n","                                                                 \n"," batch_normalization_19 (Bat  (None, 8, 8, 128)        512       \n"," chNormalization)                                                \n","                                                                 \n"," max_pooling2d_9 (MaxPooling  (None, 4, 4, 128)        0         \n"," 2D)                                                             \n","                                                                 \n"," dropout_13 (Dropout)        (None, 4, 4, 128)         0         \n","                                                                 \n"," flatten_3 (Flatten)         (None, 2048)              0         \n","                                                                 \n"," dense_7 (Dense)             (None, 512)               1049088   \n","                                                                 \n"," dropout_14 (Dropout)        (None, 512)               0         \n","                                                                 \n"," dense_8 (Dense)             (None, 100)               51300     \n","                                                                 \n","=================================================================\n","Total params: 1,389,188\n","Trainable params: 1,388,292\n","Non-trainable params: 896\n","_________________________________________________________________\n","Epoch 1/20\n","1563/1563 [==============================] - 16s 9ms/step - loss: 4.2686 - 
…
