…
serId":"01892957415387911878"}},"outputId":"5b41052b-4851-43d6-9b23-846251c9c3eb"},"outputs":[{"output_type":"stream","name":"stderr","text":["WARNING:absl:`lr` is deprecated, please use `learning_rate` instead, or use the legacy optimizer, e.g.,tf.keras.optimizers.legacy.Adam.\n"]},{"output_type":"stream","name":"stdout","text":["Model: \"sequential_1\"\n","_________________________________________________________________\n"," Layer (type)                Output Shape              Param #   \n","=================================================================\n"," conv2d_4 (Conv2D)           (None, 28, 28, 64)        640       \n","                                                                 \n"," conv2d_5 (Conv2D)           (None, 28, 28, 64)        36928     \n","                                                                 \n"," max_pooling2d_2 (MaxPooling  (None, 14, 14, 64)       0         \n"," 2D)                                                             \n","                                                                 \n"," conv2d_6 (Conv2D)           (None, 14, 14, 128)       73856     \n","                                                                 \n"," conv2d_7 (Conv2D)           (None, 12, 12, 256)       295168    \n","                                                                 \n"," max_pooling2d_3 (MaxPooling  (None, 6, 6, 256)        0         \n"," 2D)                                                             \n","                                                                 \n"," flatten_1 (Flatten)         (None, 9216)              0         \n","                                                                 \n"," dense_6 (Dense)             (None, 512)               4719104   \n","                                                                 \n"," dropout_2 (Dropout)         (None, 512)               0         \n","                                                                 \n"," dense_7 (Dense)             (None, 256)               131328    \n","                                                                 \n"," dropout_3 (Dropout)         (None, 256)               0         \n","                                                                 \n"," dense_8 (Dense)             (None, 10)                2570      \n","                                                                 \n","=================================================================\n","Total params: 5,259,594\n","Trainable params: 5,259,594\n","Non-trainable params: 0\n","_________________________________________________________________\n","Epoch 1/10\n","600/600 [==============================] - 12s 17ms/step - loss: 0.1930 - ac
…
